2024/mamba/mamba_sin_wave/log/20240409_1339_21/MAMBA.pth (torch, 3938 bytes, 9 tensors)

A_log f4 [2, 16]
000000 3c 0e f1 bd 0e c5 0b 3f eb 06 d8 3e 02 be 5e 3f
       -0.11770293 0.54597557 0.42192778 0.8700868
000010 28 f6 b6 3f b0 00 a4 3f 54 16 c7 3f 81 40 d6 3f
       1.4293871 1.281271 1.5553689 1.6738435
000020 7e d0 0a 40 1b 3a e4 3f a4 33 fe 3f 39 7d 18 40
       2.1689754 1.7830232 1.985951 2.382643
000030 cd eb 0a 40 52 66 10 40 37 6e e0 3f 5a b7 e5 3f
       2.1706421 2.2562451 1.7533635 1.794658
000040 70 4e 32 bf 3d 3c ac 3e 44 42 4c be d6 05 24 3f
       -0.69650936 0.33639708 -0.19947153 0.64071405
000050 99 0a d0 3f 39 d8 aa 3f 7e fc e4 3f 2d 0d fd 3f
       1.6253234 1.3347236 1.7889555 1.9769646
000060 d5 82 f1 3f a3 a1 05 40 d2 5b 0f 40 e1 c3 42 40
       1.8868052 2.0879905 2.2399793 3.0432055
000070 9c ad 22 40 9d ec 21 40 33 54 00 40 b5 13 15 40
       2.5418463 2.5300667 2.005139 2.3293278

D f4 [2]
000000 a7 ac e5 3f a2 3e b9 3f
       1.7943314 1.4472239

in_proj.weight f4 [4, 1]
000000 6f e5 33 3f ba 40 8f be 1a 69 4b 3f 39 58 8b bf
       0.7027196 -0.2797907 0.7945725 -1.0886298

conv1d.weight f4 [2, 1, 4]
000000 04 60 d0 3e 0a 3d e9 3e d8 e1 c9 bc d9 ea e1 be
       0.40698254 0.45554382 -0.024643824 -0.44124487
000010 69 8a a3 3d 9e ff 02 bf 03 77 08 bf 1b 29 85 be
       0.07985384 -0.5117129 -0.533066 -0.26007923

conv1d.bias f4 [2]
000000 fa 41 29 bf d6 92 69 3f
       -0.661163 0.9123968

x_proj.weight f4 [33, 2]
000000 41 0c 37 3e ae 63 da bf b6 2c ae bf 0e 36 94 3f
       0.17875768 -1.706167 -1.3607395 1.1578996
000010 11 b8 28 bf 54 da 75 3f 32 2d be bf 36 16 ba 3f
       -0.65905863 0.9603627 -1.4857543 1.4538028
000020 ef 35 c7 bf 87 ae b3 3e 8b 83 84 3e eb 6a 2d bf
       -1.5563334 0.3509409 0.2588161 -0.6774127
000030 0c 3d a4 bf 5c ad 9e be 68 01 5a 3f ee e6 3f bf
       -1.283113 -0.30991638 0.85158396 -0.74961746
000040 a2 c4 a6 bf 8e 2d 4f 3f 91 b2 58 bf 85 ec a9 bd
       -1.3028758 0.80928886 -0.8464747 -0.08297066
000050 f3 64 82 bf 5f 17 16 3f 2c 34 e3 3e 1d 0c 84 bf
       -1.0187057 0.5862941 0.4437574 -1.0316197
000060 fb 1f 01 bf 00 52 db 3e f0 29 84 3f a7 4b 67 bf
       -0.50439423 0.42836 1.0325298 -0.9034981
000070 a4 37 3a bf f1 6a 00 3f 6f ff ab 3f 45 ea 25 bf
       -0.7274115 0.5016318 1.3437327 -0.6481059
000080 33 01 a9 bf ba 11 a3 3e 2a 76 a5 bf 3a 54 54 be
       -1.3203491 0.31849462 -1.2926686 -0.20735255
000090 db e0 99 bf d1 fe 98 3e b4 26 de bf 34 4f dc be
       -1.2021745 0.2988191 -1.7355561 -0.43029177
0000a0 7d f5 db bf 4f d4 16 3e 6c 20 12 3e b6 f2 73 bf
       -1.7184292 0.14729427 0.1427018 -0.9529222
0000b0 97 1f be bf fd 52 fe 3e 7a 24 7a 3f 9f 36 4e bf
       -1.485339 0.4967269 0.9771191 -0.80552095
0000c0 c0 48 3e bf 5b 3f a3 3e f3 ae 05 bf ce 60 08 3f
       -0.7432976 0.31884274 -0.52220076 0.5327271
0000d0 f3 5e 82 bf d3 1d 55 3f c6 3e 4a 3f 74 74 7d bf
       -1.0185226 0.83248633 0.79002035 -0.9900582
0000e0 cd 58 c5 be e6 1b 0e 3f 44 97 04 3f 0b 18 eb be
       -0.38544312 0.5551132 0.51793313 -0.4591678
0000f0 b7 8f bb bd e5 dc 6d 3f ee 3a ce 3f 7d 7f 19 be
       -0.09158271 0.92915183 1.6111734 -0.14990039
000100 25 80 dd bf f0 2e 1f 3f
       -1.7304732 0.62180996

dt_proj.weight f4 [2, 1]
000000 0c fa c4 bf ce 03 90 bf
       -1.5388808 -1.1251161

dt_proj.bias f4 [2]
000000 bc c1 4d c0 7a 9f 5e c0
       -3.2149496 -3.4784837

out_proj.weight f4 [1, 2]
000000 be 1e 8f bf 20 a3 19 bf
       -1.1181257 -0.60014534
