2024/mamba/mamba_sin_wave/log/20240409_1335_49/MAMBA.pth (torch, 3938 bytes, 9 tensors)

A_log f4 [2, 16]
0	0x3ba82588	0.005131427
1	0x3f2fa156	0.68605554
2	0x3f8bb42a	1.0914357
3	0x3fb08593	1.3790764
4	0x3fcedffc	1.6162105
5	0x3fe45f41	1.7841569
6	0x3ff82cbe	1.9388654
7	0x4004a13b	2.0723407
8	0x400c2ce5	2.1902401
9	0x4013bd01	2.308411
10	0x4019018f	2.3907201
11	0x401f7756	2.4916587
12	0x402497b6	2.5717597
13	0x4028734c	2.6320372
14	0x402dc0d7	2.714895
15	0x4030fba0	2.765358
16	0x3bac2f1d	0.00525464
17	0x3f2f98f9	0.6859279
18	0x3f8bb035	1.0913149
19	0x3fb0818d	1.3789536
20	0x3fcee48d	1.6163498
21	0x3fe459bc	1.7839885
22	0x3ff828b4	1.9387422
23	0x40049f2c	2.072215
24	0x400c2aea	2.1901193
25	0x4013bef0	2.308529
26	0x4018ff63	2.3905876
27	0x401f7976	2.4917884
28	0x402499d9	2.57189
29	0x4028715a	2.6319184
30	0x402dc2e0	2.7150192
31	0x4030f9b1	2.76524

D f4 [2]
0	0x3f7e2e4d	0.992894
1	0x3f7e27ed	0.9927967

in_proj.weight f4 [4, 1]
0	0xbf2f7b4e	-0.68547523
1	0xbf2e798f	-0.68154234
2	0xbddf0265	-0.108891286
3	0x3f539fe1	0.8266583

conv1d.weight f4 [2, 1, 4]
0	0x3e9aeb37	0.3025758
1	0xbd36769b	-0.044546705
2	0xbef099de	-0.4699239
3	0xbe4d04af	-0.20021318
4	0x3e1d471a	0.15359154
5	0x3dfa6437	0.12226146
6	0xbe87b111	-0.26502278
7	0xbeafe9bc	-0.34358013

conv1d.bias f4 [2]
0	0x3efaef98	0.4901092
1	0x3ebf376e	0.37346977

x_proj.weight f4 [33, 2]
0	0xbf2f760e	-0.6853951
1	0xbd40cff6	-0.047073327
2	0xbe066344	-0.13123804
3	0x3ef60903	0.4805375
4	0xbd91f296	-0.07126348
5	0x3ebadf13	0.36498317
6	0xbf2e1236	-0.6799654
7	0x3f2d48fe	0.676895
8	0xbe6a5c78	-0.22886837
9	0x3e1c1308	0.15241635
10	0x3f0969fe	0.53677356
11	0x3f199810	0.59997654
12	0x3e6e20d1	0.23254706
13	0xbeb9ea92	-0.36311775
14	0x3e322efc	0.17400736
15	0x3e8be79d	0.27325144
16	0xbf0f4536	-0.5596498
17	0x3e9cf1c5	0.30653206
18	0xbf175f28	-0.5912957
19	0xbf26bdc0	-0.65133286
20	0xbeed5cf8	-0.46359992
21	0xbedfa8c5	-0.43683448
22	0xbedb5200	-0.42836
23	0x3ea09502	0.31363684
24	0xbf2b6123	-0.66945094
25	0xbee449f2	-0.44587666
26	0xbf21ae3b	-0.6315648
27	0x3e65614f	0.22400402
28	0x3ea1c33b	0.31594262
29	0x3db9f458	0.09079808
30	0xbec67371	-0.3875995
31	0xbde0ffdb	-0.109863006
32	0x3f30fcf3	0.6913597
33	0x3f08e848	0.53479433
34	0xbea46c84	-0.3211404
35	0x3ee5b44b	0.44864115
36	0xbef89808	-0.4855349
37	0xbe458227	-0.1928793
38	0x3ef6788c	0.48138845
39	0x3e7cf9b4	0.24704629
40	0x3e7c29ff	0.24625395
41	0x3ef377a2	0.4755221
42	0x3e37a0a3	0.17932372
43	0xbd1b1893	-0.037865233
44	0x3ee6e731	0.4509826
45	0x3f0916c6	0.53550375
46	0xbf2bc9d8	-0.67104864
47	0x3d3c6ef7	0.04600426
48	0xbe345927	-0.17612134
49	0x3f0cbcea	0.5497576
50	0x3e9aeca9	0.30258682
51	0x3f1dbf2e	0.6161984
52	0xbefbf75a	-0.49212152
53	0x3f29912f	0.6623716
54	0xbc1afd50	-0.0094598085
55	0x3e901dd4	0.28147757
56	0xbd707572	-0.058705755
57	0xbe0efc5a	-0.13963452
58	0xbefdf91c	-0.49604118
59	0x3ea919b9	0.33027437
60	0xbeb52dea	-0.35386592
61	0xbf1e66c4	-0.6187556
62	0xbf2f52d1	-0.6848574
63	0xbeb6a88f	-0.35675475
64	0xbf08970a	-0.5335547
65	0x3f0fccbd	0.5617178

dt_proj.weight f4 [2, 1]
0	0xbf04e5e2	-0.51913273
1	0x3f26ae1d	0.65109426

dt_proj.bias f4 [2]
0	0xc0842514	-4.129526
1	0xc0ac517a	-5.384946

out_proj.weight f4 [1, 2]
0	0x3efae10e	0.48999828
1	0xbed8459b	-0.42240605
