2024/mamba/mamba_sin_wave/log/20240409_1332_24/MAMBA.pth (torch, 3938 bytes, 9 tensors)

A_log f4 [2, 16]
-0.20108594 0.36170426 1.4684317 1.2697132 1.9357632 1.553348 1.5816647 1.8653615
1.9403573 2.2694347 2.702024 2.709332 2.9374988 2.891724 2.7949185 2.4599187
0.18413365 1.1741127 0.5989813 1.6697321 1.1740036 2.26774 2.4426816 2.2487729
2.6070442 2.3007863 1.9330335 2.174845 2.0670106 2.2965848 2.437686 3.3026264
00000000: 79e9 4dbe 4d31 b93e 92f5 bb3f f685 a23f
00000010: 17c7 f73f 1bd4 c63f fd73 ca3f 2ac4 ee3f
00000020: a15d f83f 6b3e 1140 f6ed 2c40 b265 2d40
00000030: fbff 3b40 0212 3940 f2df 3240 4f6f 1d40
00000040: 888d 3c3e 5349 963f d756 193f c8b9 d53f
00000050: c045 963f a722 1140 e554 1c40 e5eb 0f40
00000060: d0d9 2640 1540 1340 a46d f73f a930 0b40
00000070: e749 0440 3ffb 1240 0c03 1c40 3b5e 5340

D f4 [2]
0.8693875 1.5088841
00000000: 2e90 5e3f 1d23 c13f

in_proj.weight f4 [4, 1]
0.0679216 -0.8297351 0.30407512 -0.74749756
00000000: 7b1a 8b3d 8569 54bf bcaf 9b3e 005c 3fbf

conv1d.weight f4 [2, 1, 4]
-0.2536615 -0.2004245 0.39966714 0.23401324 -0.76866704 -0.21018185 -0.20188883 -0.85681736
00000000: ecdf 81be 153c 4dbe 2ca1 cc3e 2ba1 6f3e
00000010: 5dc7 44bf e939 57be f2bb 4ebe 6258 5bbf

conv1d.bias f4 [2]
-0.0050745397 0.5932145
00000000: 5348 a6bb e8dc 173f

x_proj.weight f4 [33, 2]
0.53946227 0.2913321 0.31229472 0.444164 -0.72943527 -0.087386064 0.7800293 -0.47179735
-0.4521021 -0.102191806 -0.3397053 -0.95170087 0.26160386 0.059924737 -0.41314018 -0.106714524
-0.07861117 -0.7470654 -0.9249256 -0.03473602 0.13740504 -0.25852865 -0.31633154 -0.83547467
0.26729995 -0.33669522 0.6041638 -0.4880436 0.37487727 0.59760034 -0.18708348 -0.32474932
-0.0144627085 0.36616513 -0.5344548 0.1635223 0.84069806 0.14686365 -0.13061853 -0.8172114
-0.19157495 -0.10879741 0.18771888 -0.4767794 -0.4128609 0.2935891 0.5630472 0.378536
-0.38491952 -0.22973046 0.5925303 0.022127556 -0.24023755 -0.41853404 0.99562293 -1.0122002
-0.41324767 -0.4808122 0.09469605 -0.7038653 -0.25304297 0.3707539 -0.44139668 -0.34791443
0.37886938 -0.2072986
00000000: 331a 0a3f 7b29 953e 18e5 9f3e 7769 e33e
00000010: 45bc 3abf 77f7 b2bd 00b0 473f 6c8f f1be
00000020: ed79 e7be f049 d1bd daed adbe aba2 73bf
00000030: f1f0 853e a473 753d 1c87 d3be 258d dabd
00000040: e5fe a0bd ae3f 3fbf edc7 6cbf 5b47 0ebd
00000050: e8b3 0c3e de5d 84be 35f6 a1be abe1 55bf
00000060: 8adb 883e 5163 acbe 7baa 1a3f dae0 f9be
00000070: eaef bf3e 56fc 183f d092 3fbe 8b45 a6be
00000080: fff4 6cbc ff79 bb3e 08d2 08bf 6472 273e
00000090: fd37 573f 6d63 163e ddc0 05be c434 51bf
000000a0: 392c 44be 2dd1 debd 6139 403e 6e1c f4be
000000b0: 8162 d3be 4f51 963e dc23 103f 78cf c13e
000000c0: 2c14 c5be 763e 6bbe 11b0 173f d944 b53c
000000d0: d500 76be 184a d6be 25e1 7e3f c78f 81bf
000000e0: 3395 d3be 042d f6be 01f0 c13d 8430 34bf
000000f0: d98e 81be 75d3 bd3e bffe e1be d721 b2be
00000100: 2bfb c13e 1646 54be

dt_proj.weight f4 [2, 1]
-0.017025324 0.05970383
00000000: b178 8bbc 018c 743d

dt_proj.bias f4 [2]
-4.9126744 -3.3012602
00000000: a134 9dc0 d947 53c0

out_proj.weight f4 [1, 2]
0.4946985 -0.5430668
00000000: 1f49 fd3e 6d06 0bbf
