2024/mamba/mamba_sin_wave/log/20240409_1358_22/MAMBA.pth (torch, 3938 bytes, 9 tensors)

A_log f4 [2, 16]
0.3265215 1.2183032 0.76202303 2.0863953 1.4272017 2.0357757 2.1235218 1.9068912
2.5809953 2.0975273 2.6539702 2.416187 2.854326 2.9163623 2.825606 2.6056461
0.102806754 1.4177655 2.3930037 2.4614673 1.9823443 2.1566384 1.7563803 2.402446
2.7758083 2.4431279 1.3863215 3.5180917 2.7475386 2.6927798 1.8385367 3.760552
00000000: d32d a73e 5cf1 9b3f f113 433f 8087 0540
00000010: 8cae b63f 264a 0240 c8e7 0740 0315 f43f
00000020: 072f 2540 e33d 0640 a6da 2940 cfa2 1a40
00000030: 47ad 3640 aea5 3a40 bbd6 3440 e8c2 2640
00000040: 598c d23d 5779 b53f f926 1940 ae88 1d40
00000050: 75bd fd3f 5d06 0a40 12d1 e03f adc1 1940
00000060: d8a6 3140 355c 1c40 fc72 b13f 6a28 6140
00000070: acd7 2f40 8156 2c40 2c55 eb3f e2ac 7040

D f4 [2]
1.9005542 1.3458017
00000000: 5c45 f33f 3b43 ac3f

in_proj.weight f4 [4, 1]
-1.3280817 -1.3643333 0.5431835 -0.88526624
00000000: 95fe a9bf 79a2 aebf 130e 0b3f cfa0 62bf

conv1d.weight f4 [2, 1, 4]
-0.55798817 0.03689642 -0.7358056 -0.5396696 0.3512912 0.7660352 0.79653174 1.0882661
00000000: 50d8 0ebf b320 173d c15d 3cbf c927 0abf
00000010: 71dc b33e e21a 443f 81e9 4b3f 4e4c 8b3f

conv1d.bias f4 [2]
1.2477311 0.8604412
00000000: a7b5 9f3f e045 5c3f

x_proj.weight f4 [33, 2]
0.15862018 -0.79662365 -0.26266393 -0.21320868 -0.97623247 0.55536574 0.038068287 0.68856055
0.3349761 -0.10775261 0.16438733 0.69605345 0.30373856 -0.5066101 0.3458157 -1.3823658
-0.7285381 0.39983553 -0.31550846 -0.004748225 0.40608588 0.181979 -0.35859317 0.47828126
-0.3923596 0.33408841 -0.64106256 -0.18352856 0.12568367 -0.3363204 -0.82392466 0.48263338
0.45800975 -0.12698291 -0.095716484 -0.99659514 0.023396721 -1.3183124 -0.115818426 0.10517286
-0.6425915 0.032819297 0.22840463 0.6763763 -0.59697366 0.44242707 -0.40726706 -0.02720585
-0.40151465 0.3242338 0.4830493 0.14851148 0.7951551 -0.56805086 0.6103588 0.24229331
-0.39131868 -0.070480414 0.7328959 0.3697029 -0.19182847 -0.21285774 0.8858278 0.9176731
0.5164549 -0.077284366
00000000: 546d 223e 87ef 4bbf e37b 86be 6053 5abe
00000010: 5fea 79bf 732c 0e3f 7eed 1b3d 8145 303f
00000020: fd81 ab3e 67ad dcbd 2755 283e 8f30 323f
00000030: 9f83 9b3e 33b1 01bf c10e b13e 5df1 b0bf
00000040: 7981 3abf 3eb7 cc3e 538a a1be 0097 9bbb
00000050: 7dea cf3e b458 3a3e 8699 b7be 48e1 f43e
00000060: 5ce3 c8be a30d ab3e ad1c 24bf e9ee 3bbe
00000070: 38b3 003e 3032 acbe baec 52bf b91b f73e
00000080: 4180 ea3e cf07 02be 0107 c4bd dc20 7fbf
00000090: 7baa bf3c 76be a8bf 3632 edbd de64 d73d
000000a0: e080 24bf 876d 063d e7e2 693e ff26 2d3f
000000b0: 44d3 18bf cd85 e23e 4f85 d0be cede debc
000000c0: 5493 cdbe f901 a63e 3d52 f73e 6513 183e
000000d0: 498f 4b3f c86b 11bf 7940 1c3f bd1b 783e
000000e0: ec5a c8be 0958 90bd 119f 3b3f b349 bd3e
000000f0: af6e 44be 61f7 59be 9cc5 623f a0ec 6a3f
00000100: 6336 043f 4447 9ebd

dt_proj.weight f4 [2, 1]
-0.67985916 1.169086
00000000: 400b 2ebf 9ca4 953f

dt_proj.bias f4 [2]
-2.1918528 -6.2878404
00000000: 5147 0cc0 fd35 c9c0

out_proj.weight f4 [1, 2]
1.3171719 -0.42906585
00000000: 1799 a83f 85ae dbbe
