2024/mamba/mamba_sin_wave/log/20240414_2349_19/MAMBA.pth (torch, 4508 bytes, 9 tensors)

layers.0.mixer.A_log f4 [2, 16]
00000000: b900 ebbd aaf5 a33f 4a9e b2be 6a65 3dbe
00000010: e840 e4be 13dc f13f 227e 09be 84ef 463f
00000020: a52d c73f b18a 9d3f b219 0140 15d8 cb3f
00000030: ac57 3d40 8fc5 943f 8996 4440 f18d 4140
00000040: 1dfe 8c3f 5adc 4dbe ab12 0540 cd27 b43f
00000050: d9d2 b83f dd0b 0540 4dff adbf a568 0840
00000060: 77c5 3b40 2abf be3f 5381 0240 c01d 0940
00000070: f8cf c33f 56ae 1940 5a6a a93f 4418 c43f
-0.11474747 1.2809346 -0.3488639 -0.18495718 -0.4458077 1.8895286 -0.13427022 0.7770922
1.5560805 1.230795 2.0171933 1.5925318 2.958476 1.162279 3.071688 3.0242884
1.1015049 -0.20103589 2.0792644 1.4074646 1.4439346 2.078849 -1.3593537 2.131387
2.9339273 1.4902089 2.0391433 2.1424408 1.5297842 2.4012656 1.3235581 1.5319905

layers.0.mixer.D f4 [2]
00000000: 48f3 d03f de08 883e
1.6324244 0.26569265

layers.0.mixer.in_proj.weight f4 [4, 1]
00000000: dc6e cdbe d35e a2bf 5162 3ebf 0d3e 97bf
-0.40123641 -1.2685188 -0.7436877 -1.1815811

layers.0.mixer.conv1d.weight f4 [2, 1, 4]
00000000: 9100 39bd abdb bcbc bde5 1bbd 600e 8b3e
00000010: 07b1 173f 66d7 f63d 67e8 103d 4234 82bf
-0.045166556 -0.023053965 -0.038060892 0.27159405 0.592545 0.12052803 0.035377886 -1.0172198

layers.0.mixer.conv1d.bias f4 [2]
00000000: 4c8c 20bf ade8 4abd
-0.62714076 -0.049538303

layers.0.mixer.x_proj.weight f4 [33, 2]
00000000: 1d22 5f3f b472 813f 73f0 b23f 8265 093f
00000010: 8ddc e53d 4e2c 583f 3345 bb3f c05a ff3f
00000020: b197 6c3f d097 36bf b502 8bbd cc9d 9abf
00000030: 7156 6a3b a66a f0bf 9cce 09c0 e328 173f
00000040: c698 5bbf e1f5 a4bf 6886 06c0 23a6 48c0
00000050: db27 a7be c11b d1bf 1122 6dbe 0acb 0340
00000060: ef42 8a3f e2a0 963f 5d43 e6be 7b4d ab3f
00000070: 3f90 e83f 1b39 debf 2a9c 5fbf 1cc8 583f
00000080: b79e 853e 6fd8 f4bf 7d1a 733f f9ff a2bf
00000090: 4537 ac3f 106b 493f f4f0 17c0 4cd4 2b3f
000000a0: d033 98bf e7a7 b23f 46e8 6c3f 338b 663f
000000b0: 53d4 f43f 71d9 91bf 49c3 e0bf 75e4 72bf
000000c0: bf00 d23f 2cac 05c0 db02 53c0 3706 ec3f
000000d0: 638a bb3f 1e37 673f 82cd 0fc0 2d1b 673f
000000e0: 540d ccbf de3e dc3f ab29 97bf 1e27 c9be
000000f0: ed7e 4ac0 b93d 2fbf 9cab 18bf 075b 2fbf
00000100: 2719 c53f f727 123f
0.8716143 1.011313 1.3979629 0.53670514 0.11223707 0.84442604 1.4630493 1.994957
0.9241896 -0.713254 -0.06787626 -1.2079406 0.003575709 -1.8782547 -2.1532354 0.59046763
-0.8577999 -1.2887536 -2.1019535 -3.1351402 -0.32647595 -1.6336595 -0.23157527 2.0592675
1.0801677 1.1767848 -0.4497327 1.338302 1.816902 -1.7361177 -0.8734766 0.8468034
0.26097652 -1.912855 0.9496229 -1.2734367 1.3454367 0.7867899 -2.3740816 0.67120814
-1.1890812 1.395749 0.9254192 0.9005615 1.9127296 -1.1394483 -1.7559596 -0.9487985
1.6406478 -2.0886335 -3.2970493 1.8439397 1.4651607 0.9031848 -2.2469182 0.9027584
-1.5941567 1.7206686 -1.1809591 -0.39287657 -3.163997 -0.68453556 -0.59636855 -0.6849827
1.5398301 0.5709223

layers.0.mixer.dt_proj.weight f4 [2, 1]
00000000: de4f d23f 3d1b 80be
1.6430624 -0.2502078

layers.0.mixer.dt_proj.bias f4 [2]
00000000: 0fa2 fdc0 d710 76c0
-7.9260325 -3.8447778

layers.0.mixer.out_proj.weight f4 [1, 2]
00000000: d4c5 fdbe 5ef2 87bf
-0.49564993 -1.062084
