2024/mamba/mamba_sin_wave/log/20240414_2343_42/MAMBA.pth (torch, 4508 bytes, 9 tensors)

layers.0.mixer.A_log f4 [2, 16]
0.08020434 0.7794428 1.2145125 1.4616886 1.4901421 1.7560301 1.8858416 2.181651
2.1644018 2.0765164 2.1886528 2.5519118 2.53486 2.4544845 2.710811 2.6338906
-0.051002543 0.8169915 1.0906528 1.4309381 1.7303501 1.9352958 1.7482121 2.1863656
1.9765685 2.05801 2.1894908 2.6018326 2.6312685 2.453409 2.8021083 2.6004956
00000000: 2c42 a43d 9089 473f 2575 9b3f 9d18 bb3f
00000010: fabc be3f 98c5 e03f 4263 f13f 2ca0 0b40
00000020: 8f85 0a40 a5e5 0440 e312 0c40 8652 2340
00000030: 253b 2240 4616 1d40 ed7d 2d40 aa91 2840
00000040: 0be8 50bd 5b26 513f 839a 8b3f fb28 b73f
00000050: 1d7c dd3f c6b7 f73f 6ac5 df3f 6aed 0b40
00000060: 3200 fd3f 70b6 0340 9e20 0c40 6d84 2640
00000070: b466 2840 a704 1d40 be55 3340 856e 2640

layers.0.mixer.D f4 [2]
0.90715367 0.94805074
00000000: 393b 683f 74b3 723f

layers.0.mixer.in_proj.weight f4 [4, 1]
-0.40582994 1.0394665 -0.76579607 0.17697495
00000000: f1c8 cfbe 3d0d 853f 360b 44bf ec38 353e

layers.0.mixer.conv1d.weight f4 [2, 1, 4]
0.29748642 0.34642434 -0.24926966 -0.1330219 0.53720546 0.2342897 0.3350836 0.18148176
00000000: 2450 983e 885e b13e 8c40 7fbe e536 08be
00000010: 4c86 093f a4e9 6f3e 1490 ab3e 5bd6 393e

layers.0.mixer.conv1d.bias f4 [2]
-0.19154812 0.48822483
00000000: 3125 44be 9bf8 f93e

layers.0.mixer.x_proj.weight f4 [33, 2]
0.13403249 0.5950536 0.4513118 0.7846059 0.533836 0.44827372 0.56592184 -0.16016921
-0.017736949 -0.48831713 0.43288228 -0.010291219 0.62119573 -0.37231407 0.2578346 -0.6969869
-0.57729816 0.5074689 -0.407755 0.2771073 -0.22530375 -0.7076298 0.60397935 0.17841816
-0.36344266 0.55025834 0.14767295 0.06987613 -0.056200236 -0.48106515 -0.106862776 -0.09718114
-0.6646969 -0.21157138 0.6254373 -0.7945621 -0.70427907 -0.15839468 0.4176884 0.14054503
0.0068393713 0.053971283 -0.31000924 -0.5418543 -0.33784828 -0.37934583 0.23174411 0.5737029
-0.3236561 0.036550824 -0.13386737 -0.8623842 0.7150171 0.19070463 0.079302914 -0.6051693
0.5495413 0.15242562 -0.19597922 0.006292046 0.26798433 0.35967678 0.72416544 -0.21478526
-0.05845782 0.2958702
00000000: d03f 093e 6f55 183f 5712 e73e efdb 483f
00000010: 7aa9 083f 2284 e53e 41e0 103f 6603 24be
00000020: 144d 91bc b404 fabe bfa2 dd3e 809c 28bc
00000030: af06 1f3f f39f bebe e602 843e bc6d 32bf
00000040: d0c9 13bf 7be9 013f 43c5 d0be 02e1 8d3e
00000050: 07b6 66be 3a27 35bf 649e 1a3f 40b3 363e
00000060: 2815 babe bbdd 0c3f 9437 173e 371b 8f3d
00000070: 3832 66bd 2c4e f6be dfda dabd e806 c7bd
00000080: 9329 2abf 2ba6 58be a91c 203f 6c68 4bbf
00000090: a24b 34bf 3732 22be 41db d53e 09eb 0f3e
000000a0: ce1c e03b fe10 5d3d 88b9 9ebe f7b6 0abf
000000b0: 73fa acbe 9e39 c2be 544e 6d3e 31de 123f
000000c0: 41b6 a5be 51b6 153d 8714 09be 36c5 5cbf
000000d0: 5c0b 373f 1348 433e 9169 a23d 60ec 1abf
000000e0: bdae 0c3f 7615 1c3e c7ae 48be 822d ce3b
000000f0: 3e35 893e 8e27 b83e e862 393f abf0 5bbe
00000100: 7871 6fbd 4d7c 973e

layers.0.mixer.dt_proj.weight f4 [2, 1]
0.3752147 0.44107732
00000000: 241c c03e e3d4 e13e

layers.0.mixer.dt_proj.bias f4 [2]
-4.177262 -3.5070906
00000000: 21ac 85c0 2c74 60c0

layers.0.mixer.out_proj.weight f4 [1, 2]
0.54201907 0.26494542
00000000: c3c1 0a3f eda6 873e
