2024/mamba/mamba_sin_wave/log/20240414_2256_58/MAMBA.pth (torch, 4508 bytes, 9 tensors)

layers.0.mixer.A_log f4 [2, 16]
0	0xbfd23ee6	-1.6425445
1	0x3e876db8	0.26450896
2	0x3fdb9030	1.7153378
3	0x3e972042	0.29516798
4	0xbe82534d	-0.25454178
5	0x3f812c89	1.0091716
6	0x3e038304	0.12842947
7	0x3fc05c07	1.5028085
8	0x3f0ac30d	0.54203874
9	0x3f2cf39c	0.6755922
10	0x3f86efea	1.0541966
11	0x40097ea7	2.1483552
12	0x3fe231e7	1.7671479
13	0x3f052cf5	0.52021724
14	0x3fc8c8d2	1.5686285
15	0x3fec9531	1.848303
16	0x3f18a854	0.5963185
17	0x3f94a0e6	1.1611602
18	0xbfce4ef5	-1.6117846
19	0x3fbab464	1.4586301
20	0x3fa1458a	1.2599347
21	0x3e31755a	0.17329922
22	0x3f851873	1.0398086
23	0x3ed96eea	0.42467433
24	0x3f615e82	0.8803483
25	0x3f4164ec	0.7554462
26	0x3f130e2f	0.5744352
27	0x3eafd5c0	0.34342766
28	0x3ef0b402	0.47012335
29	0x3f82d013	1.0219749
30	0x3f21ac30	0.6315336
31	0x3fe4f5f0	1.7887554

layers.0.mixer.D f4 [2]
0	0x3f47aad9	0.7799507
1	0x3f3e5227	0.74344105

layers.0.mixer.in_proj.weight f4 [4, 1]
0	0xbeb0156b	-0.3439134
1	0xbf2ecf98	-0.6828551
2	0x3e93adb3	0.2884346
3	0xbfd01ac0	-1.6258163

layers.0.mixer.conv1d.weight f4 [2, 1, 4]
0	0x3d4cda8c	0.05001311
1	0x3d43bb15	0.047785837
2	0xbe2d5307	-0.16926204
3	0xbf992030	-1.1962948
4	0xbf4d2325	-0.8013175
5	0xbe9b3e5f	-0.30321023
6	0x3f223646	0.63364065
7	0xbd97803c	-0.07397506

layers.0.mixer.conv1d.bias f4 [2]
0	0x3f32a6d0	0.69785786
1	0xbe70ba98	-0.2350868

layers.0.mixer.x_proj.weight f4 [33, 2]
0	0xbe2b3c7c	-0.16722292
1	0xbf83469c	-1.0255923
2	0x3f0e43a5	0.5557197
3	0xbea79208	-0.327286
4	0x3e97d714	0.2965628
5	0xbfe52932	-1.7903197
6	0xc0066600	-2.0999756
7	0x3f8a9365	1.0826231
8	0xbeb10e59	-0.3458126
9	0xbf91e17b	-1.1396936
10	0xbf315d18	-0.69282675
11	0x3f85a833	1.0441955
12	0x3fcc236d	1.5948311
13	0xbf1e147d	-0.6175001
14	0x3f912f60	1.1342583
15	0xbfc29785	-1.520249
16	0xbed08694	-0.40727675
17	0x3fc8b1f0	1.5679302
18	0xbf2779d4	-0.6542027
19	0x3fb9a6d0	1.4504032
20	0x3f5e8e87	0.8693623
21	0xbfda0cfa	-1.703521
22	0x3fc0725f	1.5034903
23	0xbf9b4c4b	-1.2132658
24	0x3f9d47f9	1.2287589
25	0xbe965599	-0.2936218
26	0xbfab7432	-1.3394835
27	0x3f356868	0.70862436
28	0xbef987f3	-0.48736534
29	0x3fadd4ec	1.3580604
30	0x3fb37e42	1.4022906
31	0xbf9a678b	-1.2062849
32	0x3ffcbc1c	1.9744906
33	0xbfd3373f	-1.6501235
34	0xbf9511a4	-1.1646008
35	0x3f477ea8	0.7792764
36	0xbfeedab2	-1.866049
37	0x3ed2698f	0.4109616
38	0xbfcd7839	-1.6052314
39	0x3f50a6eb	0.81504697
40	0xbfa5838f	-1.2930773
41	0x3e908c10	0.2823186
42	0x3fa5a5fa	1.2941277
43	0xbf881c15	-1.063357
44	0xbf29a50b	-0.6626746
45	0x3f990488	1.1954508
46	0xbff1cdbd	-1.8890911
47	0x3f92f265	1.1480223
48	0x3f7259c8	0.94668245
49	0x3f9ea498	1.239398
50	0x3fa7d8b8	1.3113012
51	0xbe3c7cb9	-0.18406953
52	0xbfe978ca	-1.8239987
53	0x3dabca49	0.08388192
54	0xbffda5e7	-1.9816254
55	0x3f9f3d01	1.2440492
56	0xbf857ba5	-1.0428358
57	0x3fab956b	1.3404974
58	0x3fb6d810	1.4284687
59	0xbf8f9865	-1.1218382
60	0x3fb0bfac	1.3808494
61	0xbeaa4101	-0.3325272
62	0xbfa12c7b	-1.2591699
63	0x3f3e3b56	0.7430929
64	0x4041545b	3.0207736
65	0xbf530705	-0.82432586

layers.0.mixer.dt_proj.weight f4 [2, 1]
0	0x3ff5c028	1.9199266
1	0xbf996837	-1.1984929

layers.0.mixer.dt_proj.bias f4 [2]
0	0xc0929e38	-4.581814
1	0xc04be866	-3.1860595

layers.0.mixer.out_proj.weight f4 [1, 2]
0	0x3ed58d14	0.41709197
1	0xbf297b90	-0.66204166
