2024/mamba/mamba_sin_wave/log/20240409_1336_34/MAMBA.pth (torch, 3938 bytes, 9 tensors)

A_log f4 [2, 16]
00000000: 8f09 27be 448d 733f 2cb6 de3e 73e2 803f
00000010: eb7f 6a3f 3109 903f 4110 ff3f 35ef ad3f
00000020: 06c1 b63f 38fa 1040 35f5 e13f f14a ea3f
00000030: 63a7 0c40 9844 f23f c32e ff3f 1254 2740
00000040: 39fd 66be ed0e 8b3f 7d1d a03e 167c 513f
00000050: 30f0 603f 1f1a 8b3f f24e e03f 2109 ab3f
00000060: 7494 bc3f d06f 0240 146e dc3f 6026 e63f
00000070: 8d96 0040 6b25 e83f 6bfc f43f a091 1d40
-0.1631224 0.9513743 0.4349836 1.0069107 0.9160144 1.1252805 1.9926835 1.3588625
1.4277656 2.2652721 1.7652956 1.830412 2.1977165 1.8927183 1.9936146 2.6145062
-0.22557534 1.086393 0.31272498 0.81829965 0.878665 1.0867347 1.7524092 1.3362161
1.4732804 2.0380745 1.7221093 1.7980461 2.009189 1.8136419 1.9139532 2.4620132

D f4 [2]
00000000: e8d0 b23f c959 c33f
1.3970003 1.5261775

in_proj.weight f4 [4, 1]
00000000: 49ca a6bd dd41 033e 21a3 b03f 259f b83f
-0.081440516 0.12818094 1.3799783 1.4423567

conv1d.weight f4 [2, 1, 4]
00000000: 59fd e53d 397e 8c3e 3f27 23bd a5e2 cd3d
00000010: 9bb0 02be 4bf9 fabe 5b32 06bf 0013 91be
0.11229963 0.2744005 -0.03983235 0.10052995 -0.12762682 -0.4901832 -0.52420586 -0.28334808

conv1d.bias f4 [2]
00000000: cf09 65bf b0e4 f4be
-0.8946809 -0.47830725

x_proj.weight f4 [33, 2]
00000000: 0f7f a2bf bda8 84bf de3b 2bbf 411a 68bf
00000010: 4477 95bd 14af 25be eb49 a33f 452c 573f
00000020: 3ef0 48bf 1e15 8ebd afad 65bf dad7 8cbf
00000030: 8c75 a0bf bb8f 8abf 037b 143e a17d 8cbf
00000040: e627 a4bf 15f7 acbe f733 ab3f af37 8b3f
00000050: 6d06 fabd 3adf 47bf 7a1d 5bbf 4570 003d
00000060: 10f5 a7bf 81a0 76bf b59b 9d3e 9364 8a3f
00000070: 1622 1fbf ea1d 8fbf 1f29 b13f 1797 413f
00000080: 6145 4cbe 7d84 5dbf 1d7f ee3c 964e 94bf
00000090: 5212 5cbe 785b 263e 3f5c 153f 13d2 a83f
000000a0: e727 8ebe b309 97bf 4b06 8fbf a4dd 53bd
000000b0: 8638 67bf 335f c4bd 9d24 14bf 0a44 94bd
000000c0: ce71 4cbf c4b2 96bf f3eb 253f 94c8 263e
000000d0: 8c5b 92be da33 ccbe 69e5 a8bf 40e2 1cbf
000000e0: dadf 5fbf 0ff9 97bd 7492 893f a1ff 6f3f
000000f0: 98df 15bf b354 b5bf e98e 213f 932e 753f
00000100: 0533 08bf 193e 67bf
-1.2695025 -1.0363995 -0.66888225 -0.9066506 -0.07298139 -0.16180068 1.2756933 0.84051925
-0.7849158 -0.069376215 -0.89718145 -1.1003373 -1.2535872 -1.0825113 0.1450005 -1.0975839
-1.2824676 -0.3378226 1.3375233 1.0876368 -0.12208257 -0.7807499 -0.8559185 0.03135707
-1.3121662 -0.9633866 0.30782858 1.0811943 -0.62161386 -1.1181004 1.3840674 0.7562117
-0.19948341 -0.86530286 0.029113347 -1.1586483 -0.21491364 0.1624583 0.5834388 1.318911
-0.27764818 -1.1799835 -1.1173795 -0.051725045 -0.9032062 -0.0958847 -0.5786837 -0.0723954
-0.7986115 -1.1773305 0.64813155 0.16287452 -0.2858547 -0.3988331 -1.319501 -0.6128273
-0.87450945 -0.07420551 1.0747819 0.93749434 -0.585443 -1.4166473 0.6310869 0.9577419
-0.5320285 -0.9032913

dt_proj.weight f4 [2, 1]
00000000: 83ab 733f 3f68 8c3f
0.9518358 1.0969313

dt_proj.bias f4 [2]
00000000: 5635 f5bf e328 f3bf
-1.9156902 -1.8996853

out_proj.weight f4 [1, 2]
00000000: aeed 20bf d40d 80bf
-0.6286267 -1.000422
