2024/mamba/mamba_sin_wave/log/20240414_2344_27/MAMBA.pth (torch, 4508 bytes, 9 tensors)

layers.0.mixer.A_log f4 [2, 16]
0	0x3ee71740	0.45134926
1	0x3f5a9e5c	0.8539789
2	0x3e45aa21	0.1930318
3	0x3fe64855	1.7990824
4	0x3fd0a17a	1.6299279
5	0x4021f27e	2.5304255
6	0x3fbaefac	1.4604392
7	0x400cc8d5	2.1997578
8	0x402be366	2.6857543
9	0x400d2023	2.2050865
10	0x401b8a36	2.4303107
11	0x401f191b	2.4859073
12	0x402aa42a	2.6662698
13	0x3fffdf85	1.9990088
14	0x4041a553	3.0257156
15	0x403af70c	2.9213285
16	0xbfa3a2a4	-1.2784009
17	0xbf24785a	-0.6424614
18	0x3f8612c4	1.0474477
19	0x3f93331e	1.1499975
20	0xbdea6397	-0.114447765
21	0xbeafc4e5	-0.34329906
22	0x3d0b507f	0.034012314
23	0x3fe589e3	1.7932705
24	0x3fcf7811	1.6208516
25	0x3f2de3d8	0.67925787
26	0x3fba95a2	1.4576914
27	0x3fc7f84e	1.5622652
28	0x3fc971ae	1.5737817
29	0x3fd42192	1.6572745
30	0x401d0c8e	2.4538913
31	0x3fe8d77c	1.8190761

layers.0.mixer.D f4 [2]
0	0x3f638d7c	0.88887763
1	0x3fc60f50	1.5473423

layers.0.mixer.in_proj.weight f4 [4, 1]
0	0xbf247e5a	-0.642553
1	0xbefc6d2e	-0.49302047
2	0xbf554106	-0.8330234
3	0xbfa89399	-1.3170043

layers.0.mixer.conv1d.weight f4 [2, 1, 4]
0	0x3e0ad8c6	0.13559255
1	0xbdfd4b7b	-0.123679124
2	0x3e153c5b	0.14573805
3	0x3ec65b0e	0.38741344
4	0x3e8bb842	0.27289015
5	0x3ea49dab	0.3215154
6	0x3e3343e2	0.17506364
7	0x3f20d9d9	0.6283241

layers.0.mixer.conv1d.bias f4 [2]
0	0x3e6e49ef	0.23270391
1	0xbef91f1f	-0.48656556

layers.0.mixer.x_proj.weight f4 [33, 2]
0	0xbf244165	-0.64162284
1	0x3f7ed234	0.99539495
2	0x3f64ab1a	0.8932358
3	0xbfa1afbb	-1.2631754
4	0xbf0c7f03	-0.54881305
5	0x3ff84ff3	1.9399399
6	0xbf765353	-0.9622089
7	0xbe32e5c8	-0.17470467
8	0xbf2c8791	-0.6739436
9	0xbd75276d	-0.059852052
10	0xbeb297d6	-0.34881467
11	0x3fd40976	1.6565387
12	0x3f98081f	1.1877478
13	0xc00535b1	-2.081402
14	0x3f8736a5	1.0563551
15	0xbfd27a8b	-1.6443647
16	0xbbecd69a	-0.007227731
17	0xbf37e480	-0.7183304
18	0x3f4e5939	0.8060489
19	0x3f5d1029	0.86352783
20	0xbf3e9af2	-0.7445518
21	0x3f4c3e33	0.7978241
22	0xbe6897a0	-0.2271409
23	0x3f2a35eb	0.6648852
24	0xbe1761ad	-0.14783354
25	0x3f413a14	0.75479245
26	0xbf717fb9	-0.94335514
27	0x3f297199	0.6618896
28	0xbf0f2ae5	-0.55924827
29	0x3f64c6c2	0.8936578
30	0x3f1c7312	0.61113083
31	0x3e53abd3	0.20671014
32	0xbf09186d	-0.53552896
33	0xbfc69180	-1.5513153
34	0x3f8501ac	1.0391135
35	0x3fff1273	1.9927505
36	0xbe8c6b48	-0.274256
37	0xbfecdc01	-1.850464
38	0xbec9d9f0	-0.39424086
39	0x3f061aaa	0.52384436
40	0x3ef6a8d5	0.48175684
41	0xbf023c06	-0.5087284
42	0xbecb194d	-0.3966774
43	0xbf82f864	-1.0232053
44	0x3f806146	1.0029685
45	0x401be398	2.4357662
46	0x3fac4114	1.345736
47	0x3f9c73d6	1.222285
48	0xbd172ba8	-0.03690687
49	0xbf94fa0d	-1.163881
50	0xbec5eef3	-0.38658866
51	0x3f88b80b	1.0681165
52	0xbf87236e	-1.0557687
53	0xbf879f29	-1.0595447
54	0xbf5b9709	-0.85777336
55	0xbf806be2	-1.0032923
56	0xbea6ca23	-0.32576093
57	0xbf0bf334	-0.54667974
58	0xbf1dd458	-0.61652136
59	0xbf422be1	-0.75848204
60	0xbfae5d21	-1.3622171
61	0xbe922dea	-0.28550655
62	0xbb448cff	-0.0029991267
63	0x3f440a3a	0.76578104
64	0x3f101ac8	0.56290865
65	0xbf23bbab	-0.63958234

layers.0.mixer.dt_proj.weight f4 [2, 1]
0	0x3e425b07	0.18980037
1	0xbfeae6e7	-1.8351716

layers.0.mixer.dt_proj.bias f4 [2]
0	0xc0ba9b6b	-5.831472
1	0xc006423e	-2.097793

layers.0.mixer.out_proj.weight f4 [1, 2]
0	0x3db14235	0.08655206
1	0x3f3d4517	0.7393355
