2024/mamba/mamba_sin_wave/log/20240416_1946_41/MAMBA.pth (torch, 4508 bytes, 9 tensors)

layers.0.mixer.A_log f4 [2, 16]
0	0x3c361c35	0.0111151235
1	0x3fca4c61	1.5804559
2	0xbe30b2bd	-0.17255683
3	0x3f8d123d	1.1021191
4	0x3f0a75a3	0.5408575
5	0x3f9db6a8	1.2321367
6	0x3ebf7c56	0.37399548
7	0x3fbdc46f	1.4825572
8	0x3f00a2ee	0.5024861
9	0xbfbea3ce	-1.4893739
10	0xbfc57075	-1.5424944
11	0x4048e78e	3.139133
12	0x3fe44b4f	1.7835482
13	0x40101bae	2.2516894
14	0x3fae0a04	1.3596807
15	0x402530b4	2.5810976
16	0x3e5aa8d9	0.21353473
17	0xbe81b794	-0.25335371
18	0x3f50f2ff	0.8162078
19	0x3f61c789	0.8819509
20	0x3f77f834	0.968631
21	0x3f9a9473	1.2076553
22	0xbe554551	-0.20827223
23	0xbfa1746a	-1.2613652
24	0xc000917c	-2.0088797
25	0x3cff080b	0.031131765
26	0xbfa0422b	-1.2520193
27	0x3fb3789a	1.402118
28	0x40322c3b	2.7839496
29	0x3ff84600	1.9396362
30	0x4056f9db	3.359
31	0x3faf0742	1.367409

layers.0.mixer.D f4 [2]
0	0x3f5e2b71	0.86785036
1	0x3f780e84	0.9689715

layers.0.mixer.in_proj.weight f4 [4, 1]
0	0x3efc649d	0.49295512
1	0xbf95254c	-1.1652007
2	0x3f206f47	0.62669796
3	0x3f79c867	0.97571415

layers.0.mixer.conv1d.weight f4 [2, 1, 4]
0	0xbd85f6b9	-0.06541199
1	0xbf279d88	-0.6547475
2	0xbad6a594	-0.001637625
3	0x3e2cac78	0.16862667
4	0xbd8e0c45	-0.06935934
5	0xbe5b69d5	-0.2142709
6	0xbc5b2612	-0.013375776
7	0x3f1e2f44	0.6179087

layers.0.mixer.conv1d.bias f4 [2]
0	0xbf2631e7	-0.64919895
1	0x3d823ea7	0.06359606

layers.0.mixer.x_proj.weight f4 [33, 2]
0	0xc053243c	-3.2990866
1	0x3fe4c40d	1.787233
2	0x3f27a400	0.6548462
3	0xbf5b24db	-0.8560311
4	0xbebf6411	-0.37381032
5	0x3d1ed5fc	0.03877829
6	0xbe1ee656	-0.15517554
7	0x3fd13973	1.6345657
8	0x3e98c75e	0.29839605
9	0xbf07edfc	-0.5309751
10	0xbe0a285f	-0.13491963
11	0x3f8f846e	1.1212289
12	0xbe8ffd28	-0.2812283
13	0xbee76c23	-0.4519969
14	0x3fb967ea	1.4484837
15	0xbfd3abcc	-1.6536803
16	0xbf0ab8f8	-0.5418849
17	0x3f8d1301	1.1021425
18	0xbdb8fdfb	-0.09032818
19	0x3f3f466a	0.7471682
20	0x4021fc19	2.5310118
21	0x3f7494bc	0.9553945
22	0xbfede996	-1.858691
23	0xc00571ee	-2.0850787
24	0xbf572e90	-0.84055424
25	0xbf778b97	-0.9669737
26	0x3fcca80b	1.5988783
27	0xbf37a479	-0.7173534
28	0x3dd7b1de	0.10531972
29	0x3dde73b7	0.108619146
30	0x3f9c8bb1	1.223013
31	0xbf7aa9d9	-0.97915417
32	0x3ea55e4c	0.32298505
33	0x3f9a1738	1.2038336
34	0x3ee47c35	0.44626012
35	0x3e63908f	0.22223113
36	0xbec0ca88	-0.3765452
37	0x3e9645ed	0.29350224
38	0xbf7e0f0a	-0.992417
39	0xbf35fc45	-0.7108806
40	0x3dc50bbe	0.0962138
41	0x3e0bbb3c	0.13645643
42	0xbec76393	-0.38943157
43	0xbf7cc09e	-0.9873141
44	0x3e70edf2	0.23528269
45	0x3ed75618	0.42057872
46	0x401cac29	2.4480078
47	0xbc0a60a4	-0.0084458925
48	0x3fdbb9de	1.7166097
49	0x3f7072d9	0.93925244
50	0xbfd6bd6d	-1.6776558
51	0xbf37f336	-0.71855485
52	0x407c1293	3.9386337
53	0x3d0dfd73	0.034665536
54	0xc045f174	-3.0928621
55	0xbeabdc14	-0.33566344
56	0xbea5f55b	-0.32413754
57	0x3fdb5665	1.713574
58	0x3fe7bff3	1.8105453
59	0xbf28abca	-0.6588713
60	0xbeb0f711	-0.34563497
61	0xbded248b	-0.11579236
62	0x401d4f87	2.457979
63	0xbf069f59	-0.52586895
64	0xbf26661b	-0.6499955
65	0xbf4b4f0e	-0.794175

layers.0.mixer.dt_proj.weight f4 [2, 1]
0	0x4046cdfe	3.1063228
1	0x3ffcbf28	1.9745836

layers.0.mixer.dt_proj.bias f4 [2]
0	0xc0171c89	-2.3611166
1	0xc01c34d3	-2.4407241

layers.0.mixer.out_proj.weight f4 [1, 2]
0	0x3ed9042b	0.42385992
1	0xbf502c2b	-0.81317395
